{
  "large_0": {
    "Model": "Project/Models/model_large_0.pth",
    "UID": "25011189",
    "Transform": [
      "Compose(",
      "    CenterCrop(size=(800, 800))",
      "    ToTensor()",
      ")"
    ],
    "Layers": [
      "SiameseNetwork(",
      "  (CNN): Sequential(",
      "    (0): Conv2d(1, 96, kernel_size=(20, 20), stride=(5, 5))",
      "    (1): ReLU(inplace=True)",
      "    (2): MaxPool2d(kernel_size=3, stride=2, padding=0, dilation=1, ceil_mode=False)",
      "    (3): Conv2d(96, 256, kernel_size=(10, 10), stride=(4, 4))",
      "    (4): ReLU(inplace=True)",
      "    (5): MaxPool2d(kernel_size=2, stride=2, padding=0, dilation=1, ceil_mode=False)",
      "    (6): Conv2d(256, 384, kernel_size=(2, 2), stride=(1, 1))",
      "    (7): ReLU(inplace=True)",
      "  )",
      "  (FC): Sequential(",
      "    (0): Linear(in_features=24576, out_features=8192, bias=True)",
      "    (1): ReLU(inplace=True)",
      "    (2): Linear(in_features=8192, out_features=1024, bias=True)",
      "    (3): ReLU(inplace=True)",
      "    (4): Linear(in_features=1024, out_features=128, bias=True)",
      "  )",
      ")"
    ],
    "Params": {
      "LR": 0.0002,
      "DECAY": 0.9
    }
  },
  "large_1": {
    "Model": "Project/Models/model_large_1.pth",
    "UID": "25012298",
    "Transform": [
      "Compose(",
      "    Resize(size=(800, 800), interpolation=bilinear, max_size=None, antialias=None)",
      "    ToTensor()",
      ")"
    ],
    "Layers": [
      "SiameseNetwork(",
      "  (CNN): Sequential(",
      "    (0): Conv2d(1, 96, kernel_size=(20, 20), stride=(5, 5))",
      "    (1): ReLU(inplace=True)",
      "    (2): MaxPool2d(kernel_size=3, stride=2, padding=0, dilation=1, ceil_mode=False)",
      "    (3): Conv2d(96, 256, kernel_size=(10, 10), stride=(4, 4))",
      "    (4): ReLU(inplace=True)",
      "    (5): MaxPool2d(kernel_size=2, stride=2, padding=0, dilation=1, ceil_mode=False)",
      "    (6): Conv2d(256, 384, kernel_size=(2, 2), stride=(1, 1))",
      "    (7): ReLU(inplace=True)",
      "  )",
      "  (FC): Sequential(",
      "    (0): Linear(in_features=24576, out_features=8192, bias=True)",
      "    (1): ReLU(inplace=True)",
      "    (2): Linear(in_features=8192, out_features=1024, bias=True)",
      "    (3): ReLU(inplace=True)",
      "    (4): Linear(in_features=1024, out_features=128, bias=True)",
      "  )",
      ")"
    ],
    "Params": {
      "LR": 0.0002,
      "DECAY": 0.9
    }
  },
  "guru_0": {
    "Model": "Project/Models/model_guru_0.pth",
    "UID": "25012302",
    "Transform": [
      "Compose(",
      "    CenterCrop(size=(128, 128))",
      "    ToTensor()",
      ")"
    ],
    "Layers": [
      "SiameseNetwork(",
      "  (CNN): Sequential(",
      "    (0): Conv2d(1, 96, kernel_size=(7, 7), stride=(2, 2), padding=(3, 3))",
      "    (1): BatchNorm2d(96, eps=1e-05, momentum=0.1, affine=True, track_running_stats=True)",
      "    (2): ReLU(inplace=True)",
      "    (3): MaxPool2d(kernel_size=2, stride=2, padding=0, dilation=1, ceil_mode=False)",
      "    (4): Conv2d(96, 64, kernel_size=(5, 5), stride=(1, 1), padding=(2, 2))",
      "    (5): BatchNorm2d(64, eps=1e-05, momentum=0.1, affine=True, track_running_stats=True)",
      "    (6): ReLU(inplace=True)",
      "    (7): MaxPool2d(kernel_size=2, stride=2, padding=0, dilation=1, ceil_mode=False)",
      "    (8): Conv2d(64, 64, kernel_size=(5, 5), stride=(1, 1), padding=(2, 2))",
      "    (9): BatchNorm2d(64, eps=1e-05, momentum=0.1, affine=True, track_running_stats=True)",
      "    (10): ReLU(inplace=True)",
      "    (11): MaxPool2d(kernel_size=2, stride=2, padding=0, dilation=1, ceil_mode=False)",
      "    (12): Conv2d(64, 128, kernel_size=(1, 1), stride=(1, 1))",
      "    (13): BatchNorm2d(128, eps=1e-05, momentum=0.1, affine=True, track_running_stats=True)",
      "    (14): ReLU(inplace=True)",
      "    (15): MaxPool2d(kernel_size=2, stride=2, padding=0, dilation=1, ceil_mode=False)",
      "  )",
      "  (FC): Sequential(",
      "    (0): Linear(in_features=2048, out_features=1024, bias=True)",
      "    (1): Tanh()",
      "    (2): Dropout(p=0.3, inplace=False)",
      "  )",
      ")"
    ],
    "Params": {
      "LR": 0.0002,
      "DECAY": 0.9
    }
  },
  "small_0": {
    "Model": "Project/Models/model_small_0.pth",
    "UID": "25022923",
    "Transform": [
      "Compose(",
      "    CenterCrop(size=(100, 100))",
      "    ToTensor()",
      ")"
    ],
    "Layers": [
      "SiameseNetwork(",
      "  (CNN): Sequential(",
      "    (0): Conv2d(1, 96, kernel_size=(11, 11), stride=(4, 4))",
      "    (1): ReLU(inplace=True)",
      "    (2): MaxPool2d(kernel_size=3, stride=2, padding=0, dilation=1, ceil_mode=False)",
      "    (3): Conv2d(96, 256, kernel_size=(5, 5), stride=(1, 1))",
      "    (4): ReLU(inplace=True)",
      "    (5): MaxPool2d(kernel_size=2, stride=2, padding=0, dilation=1, ceil_mode=False)",
      "    (6): Conv2d(256, 384, kernel_size=(3, 3), stride=(1, 1))",
      "    (7): ReLU(inplace=True)",
      "  )",
      "  (FC): Sequential(",
      "    (0): Linear(in_features=384, out_features=1024, bias=True)",
      "    (1): ReLU(inplace=True)",
      "    (2): Linear(in_features=1024, out_features=256, bias=True)",
      "    (3): ReLU(inplace=True)",
      "    (4): Linear(in_features=256, out_features=128, bias=True)",
      "  )",
      ")"
    ],
    "Params": {
      "LR": 0.0002,
      "DECAY": 0.9
    }
  },
  "medium_0": {
    "Model": "Project/Models/model_medium_0.pth",
    "UID": "25023045",
    "Transform": [
      "Compose(",
      "    CenterCrop(size=(200, 200))",
      "    ToTensor()",
      ")"
    ],
    "Layers": [
      "SiameseNetwork(",
      "  (CNN): Sequential(",
      "    (0): Conv2d(1, 96, kernel_size=(7, 7), stride=(1, 1))",
      "    (1): ReLU(inplace=True)",
      "    (2): MaxPool2d(kernel_size=3, stride=2, padding=0, dilation=1, ceil_mode=False)",
      "    (3): Conv2d(96, 160, kernel_size=(5, 5), stride=(2, 2))",
      "    (4): ReLU(inplace=True)",
      "    (5): MaxPool2d(kernel_size=2, stride=2, padding=0, dilation=1, ceil_mode=False)",
      "    (6): Conv2d(160, 256, kernel_size=(5, 5), stride=(2, 2))",
      "    (7): ReLU(inplace=True)",
      "  )",
      "  (FC): Sequential(",
      "    (0): Linear(in_features=25600, out_features=8192, bias=True)",
      "    (1): ReLU(inplace=True)",
      "    (2): Linear(in_features=8192, out_features=512, bias=True)",
      "    (3): ReLU(inplace=True)",
      "    (4): Linear(in_features=512, out_features=128, bias=True)",
      "  )",
      ")"
    ],
    "Params": {
      "LR": 0.0002,
      "DECAY": 0.9
    }
  },
  "guru_1": {
    "Model": "Project/Models/model_guru_1.pth",
    "UID": "25023102",
    "Transform": [
      "Compose(",
      "    CenterCrop(size=(128, 128))",
      "    ToTensor()",
      ")"
    ],
    "Layers": [
      "SiameseNetwork(",
      "  (CNN): Sequential(",
      "    (0): Conv2d(1, 96, kernel_size=(7, 7), stride=(2, 2), padding=(3, 3))",
      "    (1): BatchNorm2d(96, eps=1e-05, momentum=0.1, affine=True, track_running_stats=True)",
      "    (2): ReLU(inplace=True)",
      "    (3): MaxPool2d(kernel_size=2, stride=2, padding=0, dilation=1, ceil_mode=False)",
      "    (4): Conv2d(96, 64, kernel_size=(5, 5), stride=(1, 1), padding=(2, 2))",
      "    (5): BatchNorm2d(64, eps=1e-05, momentum=0.1, affine=True, track_running_stats=True)",
      "    (6): ReLU(inplace=True)",
      "    (7): MaxPool2d(kernel_size=2, stride=2, padding=0, dilation=1, ceil_mode=False)",
      "    (8): Conv2d(64, 64, kernel_size=(5, 5), stride=(1, 1), padding=(2, 2))",
      "    (9): BatchNorm2d(64, eps=1e-05, momentum=0.1, affine=True, track_running_stats=True)",
      "    (10): ReLU(inplace=True)",
      "    (11): MaxPool2d(kernel_size=2, stride=2, padding=0, dilation=1, ceil_mode=False)",
      "    (12): Conv2d(64, 128, kernel_size=(1, 1), stride=(1, 1))",
      "    (13): BatchNorm2d(128, eps=1e-05, momentum=0.1, affine=True, track_running_stats=True)",
      "    (14): ReLU(inplace=True)",
      "    (15): MaxPool2d(kernel_size=2, stride=2, padding=0, dilation=1, ceil_mode=False)",
      "  )",
      "  (FC): Sequential(",
      "    (0): Linear(in_features=2048, out_features=1024, bias=True)",
      "    (1): Tanh()",
      "    (2): Dropout(p=0.3, inplace=False)",
      "  )",
      ")"
    ],
    "Params": {
      "LR": 0.0002,
      "DECAY": 0.9
    }
  },
  "large_2": {
    "Model": "Project/Models/model_large_2.pth",
    "UID": "25024593",
    "Transform": [
      "Compose(",
      "    Resize(size=(800, 800), interpolation=bilinear, max_size=None, antialias=None)",
      "    ToTensor()",
      ")"
    ],
    "Layers": [
      "SiameseNetwork(",
      "  (CNN): Sequential(",
      "    (0): Conv2d(1, 96, kernel_size=(20, 20), stride=(5, 5))",
      "    (1): ReLU(inplace=True)",
      "    (2): MaxPool2d(kernel_size=3, stride=2, padding=0, dilation=1, ceil_mode=False)",
      "    (3): Conv2d(96, 256, kernel_size=(10, 10), stride=(4, 4))",
      "    (4): ReLU(inplace=True)",
      "    (5): MaxPool2d(kernel_size=2, stride=2, padding=0, dilation=1, ceil_mode=False)",
      "    (6): Conv2d(256, 384, kernel_size=(2, 2), stride=(1, 1))",
      "    (7): ReLU(inplace=True)",
      "  )",
      "  (FC): Sequential(",
      "    (0): Linear(in_features=24576, out_features=8192, bias=True)",
      "    (1): ReLU(inplace=True)",
      "    (2): Linear(in_features=8192, out_features=1024, bias=True)",
      "    (3): ReLU(inplace=True)",
      "    (4): Linear(in_features=1024, out_features=128, bias=True)",
      "  )",
      ")"
    ],
    "Params": {
      "LR": 0.0002,
      "DECAY": 0.9
    }
  },
  "large_3": {
    "Model": "Project/Models/model_large_3.pth",
    "UID": "25025202",
    "Transform": [
      "Compose(",
      "    Resize(size=(800, 800), interpolation=bilinear, max_size=None, antialias=None)",
      "    ToTensor()",
      ")"
    ],
    "Layers": [
      "SiameseNetwork(",
      "  (CNN): Sequential(",
      "    (0): Conv2d(1, 96, kernel_size=(20, 20), stride=(5, 5))",
      "    (1): ReLU(inplace=True)",
      "    (2): MaxPool2d(kernel_size=3, stride=2, padding=0, dilation=1, ceil_mode=False)",
      "    (3): Conv2d(96, 256, kernel_size=(10, 10), stride=(4, 4))",
      "    (4): ReLU(inplace=True)",
      "    (5): MaxPool2d(kernel_size=2, stride=2, padding=0, dilation=1, ceil_mode=False)",
      "    (6): Conv2d(256, 384, kernel_size=(2, 2), stride=(1, 1))",
      "    (7): ReLU(inplace=True)",
      "  )",
      "  (FC): Sequential(",
      "    (0): Linear(in_features=24576, out_features=8192, bias=True)",
      "    (1): ReLU(inplace=True)",
      "    (2): Linear(in_features=8192, out_features=1024, bias=True)",
      "    (3): ReLU(inplace=True)",
      "    (4): Linear(in_features=1024, out_features=128, bias=True)",
      "  )",
      ")"
    ],
    "Params": {
      "LR": 0.0002,
      "DECAY": 0.9
    }
  },
  "large_4": {
    "Model": "Project/Models/model_large_4.pth",
    "UID": "25026615",
    "Transform": [
      "Compose(",
      "    Resize(size=(800, 800), interpolation=bilinear, max_size=None, antialias=None)",
      "    ToTensor()",
      ")"
    ],
    "Layers": [
      "SiameseNetwork(",
      "  (CNN): Sequential(",
      "    (0): Conv2d(1, 96, kernel_size=(20, 20), stride=(5, 5))",
      "    (1): ReLU(inplace=True)",
      "    (2): MaxPool2d(kernel_size=3, stride=2, padding=0, dilation=1, ceil_mode=False)",
      "    (3): Conv2d(96, 256, kernel_size=(10, 10), stride=(4, 4))",
      "    (4): ReLU(inplace=True)",
      "    (5): MaxPool2d(kernel_size=2, stride=2, padding=0, dilation=1, ceil_mode=False)",
      "    (6): Conv2d(256, 384, kernel_size=(2, 2), stride=(1, 1))",
      "    (7): ReLU(inplace=True)",
      "  )",
      "  (FC): Sequential(",
      "    (0): Linear(in_features=24576, out_features=8192, bias=True)",
      "    (1): ReLU(inplace=True)",
      "    (2): Linear(in_features=8192, out_features=1024, bias=True)",
      "    (3): ReLU(inplace=True)",
      "    (4): Linear(in_features=1024, out_features=128, bias=True)",
      "  )",
      ")"
    ],
    "Params": {
      "LR": 0.0002,
      "DECAY": 0.9
    }
  },
  "large_5": {
    "Model": "Project/Models/model_large_5.pth",
    "UID": "25032777",
    "Transform": [
      "Compose(",
      "    FiveCrop(size=(100, 100))",
      "    Lambda()",
      ")"
    ],
    "Layers": [
      "SiameseNetwork(",
      "  (CNN): Sequential(",
      "    (0): Conv2d(1, 96, kernel_size=(7, 7), stride=(1, 1))",
      "    (1): ReLU(inplace=True)",
      "    (2): MaxPool2d(kernel_size=3, stride=2, padding=0, dilation=1, ceil_mode=False)",
      "    (3): Conv2d(96, 256, kernel_size=(5, 5), stride=(2, 2))",
      "    (4): ReLU(inplace=True)",
      "    (5): MaxPool2d(kernel_size=2, stride=2, padding=0, dilation=1, ceil_mode=False)",
      "    (6): Conv2d(256, 384, kernel_size=(5, 5), stride=(2, 2))",
      "    (7): ReLU(inplace=True)",
      "  )",
      "  (FC): Sequential(",
      "    (0): Linear(in_features=3456, out_features=4096, bias=True)",
      "    (1): ReLU(inplace=True)",
      "    (2): Linear(in_features=4096, out_features=2048, bias=True)",
      "    (3): ReLU(inplace=True)",
      "    (4): Linear(in_features=2048, out_features=1024, bias=True)",
      "  )",
      ")"
    ],
    "Params": {
      "LR": 0.0002,
      "DECAY": 0.9
    }
  },
  "medium_1": {
    "Model": "Project/Models/model_medium_1.pth",
    "UID": "25048661",
    "Transform": [
      "Compose(",
      "    CenterCrop(size=(200, 200))",
      "    ToTensor()",
      ")"
    ],
    "Layers": [
      "SiameseNetwork(",
      "  (CNN): Sequential(",
      "    (0): Conv2d(3, 96, kernel_size=(7, 7), stride=(1, 1))",
      "    (1): ReLU(inplace=True)",
      "    (2): MaxPool2d(kernel_size=3, stride=2, padding=0, dilation=1, ceil_mode=False)",
      "    (3): Conv2d(96, 160, kernel_size=(5, 5), stride=(2, 2))",
      "    (4): ReLU(inplace=True)",
      "    (5): MaxPool2d(kernel_size=2, stride=2, padding=0, dilation=1, ceil_mode=False)",
      "    (6): Conv2d(160, 256, kernel_size=(5, 5), stride=(2, 2))",
      "    (7): ReLU(inplace=True)",
      "  )",
      "  (FC): Sequential(",
      "    (0): Linear(in_features=25600, out_features=8192, bias=True)",
      "    (1): ReLU(inplace=True)",
      "    (2): Linear(in_features=8192, out_features=512, bias=True)",
      "    (3): ReLU(inplace=True)",
      "    (4): Linear(in_features=512, out_features=128, bias=True)",
      "  )",
      ")"
    ],
    "Params": {
      "LR": 0.0002,
      "DECAY": 0.9
    }
  },
  "large_6": {
    "Model": "Project/Models/model_large_6.pth",
    "UID": "25077100",
    "Transform": [
      "Compose(",
      "    CenterCrop(size=(800, 800))",
      "    ToTensor()",
      "    Grayscale(num_output_channels=1)",
      ")"
    ],
    "Layers": [
      "SiameseNetwork(",
      "  (CNN): Sequential(",
      "    (0): Conv2d(1, 96, kernel_size=(20, 20), stride=(5, 5))",
      "    (1): ReLU(inplace=True)",
      "    (2): MaxPool2d(kernel_size=3, stride=2, padding=0, dilation=1, ceil_mode=False)",
      "    (3): Conv2d(96, 256, kernel_size=(10, 10), stride=(4, 4))",
      "    (4): ReLU(inplace=True)",
      "    (5): MaxPool2d(kernel_size=2, stride=2, padding=0, dilation=1, ceil_mode=False)",
      "    (6): Conv2d(256, 384, kernel_size=(2, 2), stride=(1, 1))",
      "    (7): ReLU(inplace=True)",
      "  )",
      "  (FC): Sequential(",
      "    (0): Linear(in_features=24576, out_features=8192, bias=True)",
      "    (1): ReLU(inplace=True)",
      "    (2): Linear(in_features=8192, out_features=2048, bias=True)",
      "    (3): ReLU(inplace=True)",
      "    (4): Linear(in_features=2048, out_features=1024, bias=True)",
      "  )",
      ")"
    ],
    "Params": {
      "LR": 0.0002,
      "DECAY": 0.9
    }
  },
  "large_7": {
    "Model": "Project/Models/model_large_7.pth",
    "UID": "25090358",
    "Transform": [
      "Compose(",
      "    CenterCrop(size=(800, 800))",
      "    ToTensor()",
      "    Grayscale(num_output_channels=1)",
      ")"
    ],
    "Layers": [
      "SiameseNetwork(",
      "  (CNN): Sequential(",
      "    (0): Conv2d(1, 96, kernel_size=(20, 20), stride=(5, 5))",
      "    (1): ReLU(inplace=True)",
      "    (2): MaxPool2d(kernel_size=3, stride=2, padding=0, dilation=1, ceil_mode=False)",
      "    (3): Conv2d(96, 256, kernel_size=(10, 10), stride=(4, 4))",
      "    (4): ReLU(inplace=True)",
      "    (5): MaxPool2d(kernel_size=2, stride=2, padding=0, dilation=1, ceil_mode=False)",
      "    (6): Conv2d(256, 384, kernel_size=(2, 2), stride=(1, 1))",
      "    (7): ReLU(inplace=True)",
      "  )",
      "  (FC): Sequential(",
      "    (0): Linear(in_features=24576, out_features=8192, bias=True)",
      "    (1): ReLU(inplace=True)",
      "    (2): Linear(in_features=8192, out_features=2048, bias=True)",
      "    (3): ReLU(inplace=True)",
      "    (4): Linear(in_features=2048, out_features=1024, bias=True)",
      "  )",
      ")"
    ],
    "Params": {
      "LR": 0.0002,
      "DECAY": 0.9
    }
  },
  "large_8": {
    "Model": "Project/Models/model_large_8.pth",
    "UID": "25102314",
    "Transform": [
      "Compose(",
      "    CenterCrop(size=(800, 800))",
      "    ToTensor()",
      "    Grayscale(num_output_channels=1)",
      ")"
    ],
    "Layers": [
      "SiameseNetwork(",
      "  (CNN): Sequential(",
      "    (0): Conv2d(1, 96, kernel_size=(15, 15), stride=(5, 5))",
      "    (1): ReLU(inplace=True)",
      "    (2): MaxPool2d(kernel_size=3, stride=2, padding=0, dilation=1, ceil_mode=False)",
      "    (3): Conv2d(96, 256, kernel_size=(10, 10), stride=(4, 4))",
      "    (4): ReLU(inplace=True)",
      "    (5): MaxPool2d(kernel_size=2, stride=2, padding=0, dilation=1, ceil_mode=False)",
      "    (6): Conv2d(256, 384, kernel_size=(5, 5), stride=(1, 1))",
      "    (7): ReLU(inplace=True)",
      "  )",
      "  (FC): Sequential(",
      "    (0): Linear(in_features=9600, out_features=8192, bias=True)",
      "    (1): ReLU(inplace=True)",
      "    (2): Linear(in_features=8192, out_features=2048, bias=True)",
      "    (3): ReLU(inplace=True)",
      "    (4): Linear(in_features=2048, out_features=1024, bias=True)",
      "  )",
      ")"
    ],
    "Params": {
      "LR": 0.0002,
      "DECAY": 0.9
    }
  },
  "large_9": {
    "Model": "Project/Models/model_large_9.pth",
    "UID": "25102831",
    "Transform": [
      "Compose(",
      "    CenterCrop(size=(800, 800))",
      "    ToTensor()",
      "    Grayscale(num_output_channels=1)",
      ")"
    ],
    "Layers": [
      "SiameseNetwork(",
      "  (CNN): Sequential(",
      "    (0): Conv2d(1, 96, kernel_size=(15, 15), stride=(5, 5))",
      "    (1): ReLU(inplace=True)",
      "    (2): MaxPool2d(kernel_size=3, stride=2, padding=0, dilation=1, ceil_mode=False)",
      "    (3): Conv2d(96, 256, kernel_size=(10, 10), stride=(4, 4))",
      "    (4): ReLU(inplace=True)",
      "    (5): MaxPool2d(kernel_size=2, stride=2, padding=0, dilation=1, ceil_mode=False)",
      "    (6): Conv2d(256, 384, kernel_size=(5, 5), stride=(1, 1))",
      "    (7): ReLU(inplace=True)",
      "  )",
      "  (FC): Sequential(",
      "    (0): Linear(in_features=9600, out_features=8192, bias=True)",
      "    (1): ReLU(inplace=True)",
      "    (2): Linear(in_features=8192, out_features=2048, bias=True)",
      "    (3): ReLU(inplace=True)",
      "    (4): Linear(in_features=2048, out_features=1024, bias=True)",
      "  )",
      ")"
    ],
    "Params": {
      "LR": 0.0002,
      "DECAY": 0.9
    }
  },
  "large_10": {
    "Model": "Project/Models/model_large_10.pth",
    "UID": "25104964",
    "Transform": [
      "Compose(",
      "    CenterCrop(size=(800, 800))",
      "    ToTensor()",
      "    Grayscale(num_output_channels=1)",
      ")"
    ],
    "Layers": [
      "SiameseNetwork(",
      "  (CNN): Sequential(",
      "    (0): Conv2d(1, 96, kernel_size=(15, 15), stride=(5, 5))",
      "    (1): ReLU(inplace=True)",
      "    (2): MaxPool2d(kernel_size=3, stride=2, padding=0, dilation=1, ceil_mode=False)",
      "    (3): Conv2d(96, 256, kernel_size=(10, 10), stride=(4, 4))",
      "    (4): ReLU(inplace=True)",
      "    (5): MaxPool2d(kernel_size=2, stride=2, padding=0, dilation=1, ceil_mode=False)",
      "    (6): Conv2d(256, 384, kernel_size=(5, 5), stride=(1, 1))",
      "    (7): ReLU(inplace=True)",
      "  )",
      "  (FC): Sequential(",
      "    (0): Linear(in_features=9600, out_features=8192, bias=True)",
      "    (1): ReLU(inplace=True)",
      "    (2): Linear(in_features=8192, out_features=2048, bias=True)",
      "    (3): ReLU(inplace=True)",
      "    (4): Linear(in_features=2048, out_features=1024, bias=True)",
      "  )",
      ")"
    ],
    "Params": {
      "LR": 0.0002,
      "DECAY": 0.9
    }
  },
  "large_11": {
    "Model": "Project/Models/model_large_11.pth",
    "UID": "25109042",
    "Transform": [
      "Compose(",
      "    CenterCrop(size=(800, 800))",
      "    ToTensor()",
      "    Grayscale(num_output_channels=1)",
      ")"
    ],
    "Layers": [
      "SiameseNetwork(",
      "  (CNN): Sequential(",
      "    (0): Conv2d(1, 96, kernel_size=(15, 15), stride=(5, 5))",
      "    (1): ReLU(inplace=True)",
      "    (2): MaxPool2d(kernel_size=3, stride=2, padding=0, dilation=1, ceil_mode=False)",
      "    (3): Conv2d(96, 256, kernel_size=(10, 10), stride=(4, 4))",
      "    (4): ReLU(inplace=True)",
      "    (5): MaxPool2d(kernel_size=2, stride=2, padding=0, dilation=1, ceil_mode=False)",
      "    (6): Conv2d(256, 384, kernel_size=(5, 5), stride=(1, 1))",
      "    (7): ReLU(inplace=True)",
      "  )",
      "  (FC): Sequential(",
      "    (0): Linear(in_features=9600, out_features=8192, bias=True)",
      "    (1): ReLU(inplace=True)",
      "    (2): Linear(in_features=8192, out_features=2048, bias=True)",
      "    (3): ReLU(inplace=True)",
      "    (4): Linear(in_features=2048, out_features=1024, bias=True)",
      "  )",
      ")"
    ],
    "Params": {
      "LR": 0.0002,
      "DECAY": 0.9
    }
  },
  "guru_2": {
    "Model": "Project/Models/model_guru_2.pth",
    "UID": "25109045",
    "Transform": [
      "Compose(",
      "    CenterCrop(size=(128, 128))",
      "    ToTensor()",
      "    Grayscale(num_output_channels=1)",
      ")"
    ],
    "Layers": [
      "SiameseNetwork(",
      "  (CNN): Sequential(",
      "    (0): Conv2d(1, 96, kernel_size=(7, 7), stride=(2, 2), padding=(3, 3))",
      "    (1): BatchNorm2d(96, eps=1e-05, momentum=0.1, affine=True, track_running_stats=True)",
      "    (2): ReLU(inplace=True)",
      "    (3): MaxPool2d(kernel_size=2, stride=2, padding=0, dilation=1, ceil_mode=False)",
      "    (4): Conv2d(96, 64, kernel_size=(5, 5), stride=(1, 1), padding=(2, 2))",
      "    (5): BatchNorm2d(64, eps=1e-05, momentum=0.1, affine=True, track_running_stats=True)",
      "    (6): ReLU(inplace=True)",
      "    (7): MaxPool2d(kernel_size=2, stride=2, padding=0, dilation=1, ceil_mode=False)",
      "    (8): Conv2d(64, 64, kernel_size=(5, 5), stride=(1, 1), padding=(2, 2))",
      "    (9): BatchNorm2d(64, eps=1e-05, momentum=0.1, affine=True, track_running_stats=True)",
      "    (10): ReLU(inplace=True)",
      "    (11): MaxPool2d(kernel_size=2, stride=2, padding=0, dilation=1, ceil_mode=False)",
      "    (12): Conv2d(64, 128, kernel_size=(1, 1), stride=(1, 1))",
      "    (13): BatchNorm2d(128, eps=1e-05, momentum=0.1, affine=True, track_running_stats=True)",
      "    (14): ReLU(inplace=True)",
      "    (15): MaxPool2d(kernel_size=2, stride=2, padding=0, dilation=1, ceil_mode=False)",
      "  )",
      "  (FC): Sequential(",
      "    (0): Linear(in_features=2048, out_features=1024, bias=True)",
      "    (1): Tanh()",
      "    (2): Dropout(p=0.3, inplace=False)",
      "  )",
      ")"
    ],
    "Params": {
      "LR": 0.0002,
      "DECAY": 0.9
    }
  },
  "guru_3": {
    "Model": "Project/Models/model_guru_3.pth",
    "UID": "25109046",
    "Transform": [
      "Compose(",
      "    CenterCrop(size=(128, 128))",
      "    ToTensor()",
      "    Grayscale(num_output_channels=1)",
      ")"
    ],
    "Layers": [
      "SiameseNetwork(",
      "  (CNN): Sequential(",
      "    (0): Conv2d(1, 96, kernel_size=(7, 7), stride=(2, 2), padding=(3, 3))",
      "    (1): BatchNorm2d(96, eps=1e-05, momentum=0.1, affine=True, track_running_stats=True)",
      "    (2): ReLU(inplace=True)",
      "    (3): MaxPool2d(kernel_size=2, stride=2, padding=0, dilation=1, ceil_mode=False)",
      "    (4): Conv2d(96, 64, kernel_size=(5, 5), stride=(1, 1), padding=(2, 2))",
      "    (5): BatchNorm2d(64, eps=1e-05, momentum=0.1, affine=True, track_running_stats=True)",
      "    (6): ReLU(inplace=True)",
      "    (7): MaxPool2d(kernel_size=2, stride=2, padding=0, dilation=1, ceil_mode=False)",
      "    (8): Conv2d(64, 64, kernel_size=(5, 5), stride=(1, 1), padding=(2, 2))",
      "    (9): BatchNorm2d(64, eps=1e-05, momentum=0.1, affine=True, track_running_stats=True)",
      "    (10): ReLU(inplace=True)",
      "    (11): MaxPool2d(kernel_size=2, stride=2, padding=0, dilation=1, ceil_mode=False)",
      "    (12): Conv2d(64, 128, kernel_size=(1, 1), stride=(1, 1))",
      "    (13): BatchNorm2d(128, eps=1e-05, momentum=0.1, affine=True, track_running_stats=True)",
      "    (14): ReLU(inplace=True)",
      "    (15): MaxPool2d(kernel_size=2, stride=2, padding=0, dilation=1, ceil_mode=False)",
      "  )",
      "  (FC): Sequential(",
      "    (0): Linear(in_features=2048, out_features=1024, bias=True)",
      "    (1): Tanh()",
      "    (2): Dropout(p=0.3, inplace=False)",
      "  )",
      ")"
    ],
    "Params": {
      "LR": 0.0002,
      "DECAY": 0.9
    }
  },
  "large_12": {
    "Model": "Project/Models/model_large_12.pth",
    "UID": "25125220",
    "Transform": [
      "Compose(",
      "    CenterCrop(size=(800, 800))",
      "    ToTensor()",
      "    Grayscale(num_output_channels=1)",
      ")"
    ],
    "Layers": [
      "SiameseNetwork(",
      "  (CNN): Sequential(",
      "    (0): Conv2d(1, 96, kernel_size=(15, 15), stride=(5, 5))",
      "    (1): ReLU(inplace=True)",
      "    (2): MaxPool2d(kernel_size=3, stride=2, padding=0, dilation=1, ceil_mode=False)",
      "    (3): Conv2d(96, 256, kernel_size=(10, 10), stride=(4, 4))",
      "    (4): ReLU(inplace=True)",
      "    (5): MaxPool2d(kernel_size=2, stride=2, padding=0, dilation=1, ceil_mode=False)",
      "    (6): Conv2d(256, 384, kernel_size=(5, 5), stride=(1, 1))",
      "    (7): ReLU(inplace=True)",
      "  )",
      "  (FC): Sequential(",
      "    (0): Linear(in_features=9600, out_features=8192, bias=True)",
      "    (1): ReLU(inplace=True)",
      "    (2): Linear(in_features=8192, out_features=2048, bias=True)",
      "    (3): ReLU(inplace=True)",
      "    (4): Linear(in_features=2048, out_features=1024, bias=True)",
      "  )",
      ")"
    ],
    "Params": {
      "LR": 0.0002,
      "DECAY": 0.9
    }
  },
  "large_13": {
    "Model": "Project/Models/model_large_13.pth",
    "UID": "25134964",
    "Transform": [
      "Compose(",
      "    CenterCrop(size=(800, 800))",
      "    ToTensor()",
      "    Grayscale(num_output_channels=1)",
      ")"
    ],
    "Layers": [
      "SiameseNetwork(",
      "  (CNN): Sequential(",
      "    (0): Conv2d(1, 96, kernel_size=(15, 15), stride=(5, 5))",
      "    (1): ReLU(inplace=True)",
      "    (2): MaxPool2d(kernel_size=3, stride=2, padding=0, dilation=1, ceil_mode=False)",
      "    (3): Conv2d(96, 256, kernel_size=(10, 10), stride=(4, 4))",
      "    (4): ReLU(inplace=True)",
      "    (5): MaxPool2d(kernel_size=2, stride=2, padding=0, dilation=1, ceil_mode=False)",
      "    (6): Conv2d(256, 384, kernel_size=(5, 5), stride=(1, 1))",
      "    (7): ReLU(inplace=True)",
      "  )",
      "  (FC): Sequential(",
      "    (0): Linear(in_features=9600, out_features=8192, bias=True)",
      "    (1): ReLU(inplace=True)",
      "    (2): Linear(in_features=8192, out_features=2048, bias=True)",
      "    (3): ReLU(inplace=True)",
      "    (4): Linear(in_features=2048, out_features=1024, bias=True)",
      "  )",
      ")"
    ],
    "Params": {
      "LR": 0.0002,
      "DECAY": 0.9
    }
  },
  "large_14": {
    "Model": "Project/Models/model_large_14.pth",
    "UID": "25198848",
    "Transform": [
      "Compose(",
      "    CenterCrop(size=(800, 800))",
      "    ToTensor()",
      "    Grayscale(num_output_channels=1)",
      ")"
    ],
    "Layers": [
      "SiameseNetwork(",
      "  (CNN): Sequential(",
      "    (0): Conv2d(1, 96, kernel_size=(15, 15), stride=(5, 5))",
      "    (1): ReLU(inplace=True)",
      "    (2): MaxPool2d(kernel_size=3, stride=2, padding=0, dilation=1, ceil_mode=False)",
      "    (3): Conv2d(96, 256, kernel_size=(10, 10), stride=(4, 4))",
      "    (4): ReLU(inplace=True)",
      "    (5): MaxPool2d(kernel_size=2, stride=2, padding=0, dilation=1, ceil_mode=False)",
      "    (6): Conv2d(256, 384, kernel_size=(5, 5), stride=(1, 1))",
      "    (7): ReLU(inplace=True)",
      "  )",
      "  (FC): Sequential(",
      "    (0): Linear(in_features=9600, out_features=8192, bias=True)",
      "    (1): ReLU(inplace=True)",
      "    (2): Linear(in_features=8192, out_features=2048, bias=True)",
      "    (3): ReLU(inplace=True)",
      "    (4): Linear(in_features=2048, out_features=1024, bias=True)",
      "  )",
      ")"
    ],
    "Params": {
      "LR": 0.0002,
      "DECAY": 0.9
    }
  },
  "large_15": {
    "Model": "Project/Models/model_large_15.pth",
    "UID": "25201908",
    "Transform": [
      "Compose(",
      "    CenterCrop(size=(800, 800))",
      "    ToTensor()",
      "    Grayscale(num_output_channels=1)",
      ")"
    ],
    "Layers": [
      "SiameseNetwork(",
      "  (CNN): Sequential(",
      "    (0): Conv2d(1, 96, kernel_size=(15, 15), stride=(5, 5))",
      "    (1): ReLU(inplace=True)",
      "    (2): MaxPool2d(kernel_size=3, stride=2, padding=0, dilation=1, ceil_mode=False)",
      "    (3): Conv2d(96, 256, kernel_size=(10, 10), stride=(4, 4))",
      "    (4): ReLU(inplace=True)",
      "    (5): MaxPool2d(kernel_size=2, stride=2, padding=0, dilation=1, ceil_mode=False)",
      "    (6): Conv2d(256, 384, kernel_size=(5, 5), stride=(1, 1))",
      "    (7): ReLU(inplace=True)",
      "  )",
      "  (FC): Sequential(",
      "    (0): Linear(in_features=9600, out_features=8192, bias=True)",
      "    (1): ReLU(inplace=True)",
      "    (2): Linear(in_features=8192, out_features=2048, bias=True)",
      "    (3): ReLU(inplace=True)",
      "    (4): Linear(in_features=2048, out_features=1024, bias=True)",
      "  )",
      ")"
    ],
    "Params": {
      "LR": 0.0002,
      "DECAY": 0.9
    }
  },
  "large_16": {
    "Model": "Project/Models/model_large_16.pth",
    "UID": "25202647",
    "Transform": [
      "Compose(",
      "    CenterCrop(size=(800, 800))",
      "    ToTensor()",
      "    Grayscale(num_output_channels=1)",
      ")"
    ],
    "Layers": [
      "SiameseNetwork(",
      "  (CNN): Sequential(",
      "    (0): Conv2d(1, 96, kernel_size=(15, 15), stride=(5, 5))",
      "    (1): ReLU(inplace=True)",
      "    (2): MaxPool2d(kernel_size=3, stride=2, padding=0, dilation=1, ceil_mode=False)",
      "    (3): Conv2d(96, 256, kernel_size=(10, 10), stride=(4, 4))",
      "    (4): ReLU(inplace=True)",
      "    (5): MaxPool2d(kernel_size=2, stride=2, padding=0, dilation=1, ceil_mode=False)",
      "    (6): Conv2d(256, 384, kernel_size=(5, 5), stride=(1, 1))",
      "    (7): ReLU(inplace=True)",
      "  )",
      "  (FC): Sequential(",
      "    (0): Linear(in_features=9600, out_features=8192, bias=True)",
      "    (1): ReLU(inplace=True)",
      "    (2): Linear(in_features=8192, out_features=2048, bias=True)",
      "    (3): ReLU(inplace=True)",
      "    (4): Linear(in_features=2048, out_features=1024, bias=True)",
      "  )",
      ")"
    ],
    "Params": {
      "LR": 0.0002,
      "DECAY": 0.9
    }
  },
  "large_17": {
    "Model": "Project/Models/model_large_17.pth",
    "UID": "25202903",
    "Transform": [
      "Compose(",
      "    CenterCrop(size=(800, 800))",
      "    ToTensor()",
      "    Grayscale(num_output_channels=1)",
      ")"
    ],
    "Layers": [
      "SiameseNetwork(",
      "  (CNN): Sequential(",
      "    (0): Conv2d(1, 96, kernel_size=(15, 15), stride=(5, 5))",
      "    (1): ReLU(inplace=True)",
      "    (2): MaxPool2d(kernel_size=3, stride=2, padding=0, dilation=1, ceil_mode=False)",
      "    (3): Conv2d(96, 256, kernel_size=(10, 10), stride=(4, 4))",
      "    (4): ReLU(inplace=True)",
      "    (5): MaxPool2d(kernel_size=2, stride=2, padding=0, dilation=1, ceil_mode=False)",
      "    (6): Conv2d(256, 384, kernel_size=(5, 5), stride=(1, 1))",
      "    (7): ReLU(inplace=True)",
      "  )",
      "  (FC): Sequential(",
      "    (0): Linear(in_features=9600, out_features=8192, bias=True)",
      "    (1): ReLU(inplace=True)",
      "    (2): Linear(in_features=8192, out_features=2048, bias=True)",
      "    (3): ReLU(inplace=True)",
      "    (4): Linear(in_features=2048, out_features=1024, bias=True)",
      "  )",
      ")"
    ],
    "Params": {
      "LR": 0.0002,
      "DECAY": 0.9
    }
  },
  "large_18": {
    "Model": "Project/Models/model_large_18.pth",
    "UID": "25223831",
    "Transform": [
      "Compose(",
      "    CenterCrop(size=(800, 800))",
      "    ToTensor()",
      "    Grayscale(num_output_channels=1)",
      ")"
    ],
    "Layers": [
      "SiameseNetwork(",
      "  (CNN): Sequential(",
      "    (0): Conv2d(1, 96, kernel_size=(15, 15), stride=(5, 5))",
      "    (1): ReLU(inplace=True)",
      "    (2): MaxPool2d(kernel_size=3, stride=2, padding=0, dilation=1, ceil_mode=False)",
      "    (3): Conv2d(96, 256, kernel_size=(10, 10), stride=(4, 4))",
      "    (4): ReLU(inplace=True)",
      "    (5): MaxPool2d(kernel_size=2, stride=2, padding=0, dilation=1, ceil_mode=False)",
      "    (6): Conv2d(256, 384, kernel_size=(5, 5), stride=(1, 1))",
      "    (7): ReLU(inplace=True)",
      "  )",
      "  (FC): Sequential(",
      "    (0): Linear(in_features=9600, out_features=8192, bias=True)",
      "    (1): ReLU(inplace=True)",
      "    (2): Linear(in_features=8192, out_features=2048, bias=True)",
      "    (3): ReLU(inplace=True)",
      "    (4): Linear(in_features=2048, out_features=1024, bias=True)",
      "  )",
      ")"
    ],
    "Params": {
      "LR": 0.0002,
      "DECAY": 0.9
    }
  },
  "large_19": {
    "Model": "Project/Models/model_large_19.pth",
    "UID": "25224283",
    "Transform": [
      "Compose(",
      "    CenterCrop(size=(800, 800))",
      "    ToTensor()",
      "    Grayscale(num_output_channels=1)",
      ")"
    ],
    "Layers": [
      "SiameseNetwork(",
      "  (CNN): Sequential(",
      "    (0): Conv2d(1, 96, kernel_size=(15, 15), stride=(5, 5))",
      "    (1): ReLU(inplace=True)",
      "    (2): MaxPool2d(kernel_size=3, stride=2, padding=0, dilation=1, ceil_mode=False)",
      "    (3): Conv2d(96, 256, kernel_size=(10, 10), stride=(4, 4))",
      "    (4): ReLU(inplace=True)",
      "    (5): MaxPool2d(kernel_size=2, stride=2, padding=0, dilation=1, ceil_mode=False)",
      "    (6): Conv2d(256, 384, kernel_size=(5, 5), stride=(1, 1))",
      "    (7): ReLU(inplace=True)",
      "  )",
      "  (FC): Sequential(",
      "    (0): Linear(in_features=9600, out_features=8192, bias=True)",
      "    (1): ReLU(inplace=True)",
      "    (2): Linear(in_features=8192, out_features=2048, bias=True)",
      "    (3): ReLU(inplace=True)",
      "    (4): Linear(in_features=2048, out_features=1024, bias=True)",
      "  )",
      ")"
    ],
    "Params": {
      "LR": 0.0002,
      "DECAY": 0.9
    }
  },
  "large_20": {
    "Model": "Project/Models/model_large_20.pth",
    "UID": "25227687",
    "Transform": [
      "Compose(",
      "    CenterCrop(size=(800, 800))",
      "    ToTensor()",
      "    Grayscale(num_output_channels=1)",
      ")"
    ],
    "Layers": [
      "SiameseNetwork(",
      "  (CNN): Sequential(",
      "    (0): Conv2d(1, 96, kernel_size=(15, 15), stride=(5, 5))",
      "    (1): ReLU(inplace=True)",
      "    (2): MaxPool2d(kernel_size=3, stride=2, padding=0, dilation=1, ceil_mode=False)",
      "    (3): Conv2d(96, 256, kernel_size=(10, 10), stride=(4, 4))",
      "    (4): ReLU(inplace=True)",
      "    (5): MaxPool2d(kernel_size=2, stride=2, padding=0, dilation=1, ceil_mode=False)",
      "    (6): Conv2d(256, 384, kernel_size=(5, 5), stride=(1, 1))",
      "    (7): ReLU(inplace=True)",
      "  )",
      "  (FC): Sequential(",
      "    (0): Linear(in_features=9600, out_features=8192, bias=True)",
      "    (1): ReLU(inplace=True)",
      "    (2): Linear(in_features=8192, out_features=2048, bias=True)",
      "    (3): ReLU(inplace=True)",
      "    (4): Linear(in_features=2048, out_features=1024, bias=True)",
      "  )",
      ")"
    ],
    "Params": {
      "LR": 0.0002,
      "DECAY": 0.9
    }
  },
  "large_21": {
    "Model": "Project/Models/model_large_21.pth",
    "UID": "25274264",
    "Transform": [
      "Compose(",
      "    CenterCrop(size=(800, 800))",
      "    ToTensor()",
      "    Grayscale(num_output_channels=1)",
      ")"
    ],
    "Layers": [
      "SiameseNetwork(",
      "  (CNN): Sequential(",
      "    (0): Conv2d(1, 96, kernel_size=(15, 15), stride=(5, 5))",
      "    (1): ReLU(inplace=True)",
      "    (2): MaxPool2d(kernel_size=3, stride=2, padding=0, dilation=1, ceil_mode=False)",
      "    (3): Conv2d(96, 256, kernel_size=(10, 10), stride=(4, 4))",
      "    (4): ReLU(inplace=True)",
      "    (5): MaxPool2d(kernel_size=2, stride=2, padding=0, dilation=1, ceil_mode=False)",
      "    (6): Conv2d(256, 384, kernel_size=(5, 5), stride=(1, 1))",
      "    (7): ReLU(inplace=True)",
      "  )",
      "  (FC): Sequential(",
      "    (0): Linear(in_features=9600, out_features=8192, bias=True)",
      "    (1): ReLU(inplace=True)",
      "    (2): Linear(in_features=8192, out_features=2048, bias=True)",
      "    (3): ReLU(inplace=True)",
      "    (4): Linear(in_features=2048, out_features=1024, bias=True)",
      "  )",
      ")"
    ],
    "Params": {
      "LR": 0.0002,
      "DECAY": 0.9
    }
  },
  "large_22": {
    "Model": "Project/Models/model_large_22.pth",
    "UID": "25281626",
    "Transform": [
      "Compose(",
      "    CenterCrop(size=(800, 800))",
      "    ToTensor()",
      "    Grayscale(num_output_channels=1)",
      ")"
    ],
    "Layers": [
      "SiameseNetwork(",
      "  (CNN): Sequential(",
      "    (0): Conv2d(1, 96, kernel_size=(15, 15), stride=(5, 5))",
      "    (1): ReLU(inplace=True)",
      "    (2): MaxPool2d(kernel_size=3, stride=2, padding=0, dilation=1, ceil_mode=False)",
      "    (3): Conv2d(96, 256, kernel_size=(10, 10), stride=(4, 4))",
      "    (4): ReLU(inplace=True)",
      "    (5): MaxPool2d(kernel_size=2, stride=2, padding=0, dilation=1, ceil_mode=False)",
      "    (6): Conv2d(256, 384, kernel_size=(5, 5), stride=(1, 1))",
      "    (7): ReLU(inplace=True)",
      "  )",
      "  (FC): Sequential(",
      "    (0): Linear(in_features=9600, out_features=8192, bias=True)",
      "    (1): ReLU(inplace=True)",
      "    (2): Linear(in_features=8192, out_features=2048, bias=True)",
      "    (3): ReLU(inplace=True)",
      "    (4): Linear(in_features=2048, out_features=1024, bias=True)",
      "  )",
      ")"
    ],
    "Params": {
      "LR": 0.0002,
      "DECAY": 0.9
    }
  },
  "large_23": {
    "Model": "Project/Models/model_large_23.pth",
    "UID": "25302079",
    "Transform": [
      "Compose(",
      "    CenterCrop(size=(800, 800))",
      "    ToTensor()",
      "    Grayscale(num_output_channels=1)",
      ")"
    ],
    "Layers": [
      "SiameseNetwork(",
      "  (CNN): Sequential(",
      "    (0): Conv2d(1, 96, kernel_size=(15, 15), stride=(5, 5))",
      "    (1): ReLU(inplace=True)",
      "    (2): MaxPool2d(kernel_size=3, stride=2, padding=0, dilation=1, ceil_mode=False)",
      "    (3): Conv2d(96, 256, kernel_size=(10, 10), stride=(4, 4))",
      "    (4): ReLU(inplace=True)",
      "    (5): MaxPool2d(kernel_size=2, stride=2, padding=0, dilation=1, ceil_mode=False)",
      "    (6): Conv2d(256, 384, kernel_size=(5, 5), stride=(1, 1))",
      "    (7): ReLU(inplace=True)",
      "  )",
      "  (FC): Sequential(",
      "    (0): Linear(in_features=9600, out_features=8192, bias=True)",
      "    (1): ReLU(inplace=True)",
      "    (2): Linear(in_features=8192, out_features=2048, bias=True)",
      "    (3): ReLU(inplace=True)",
      "    (4): Linear(in_features=2048, out_features=1024, bias=True)",
      "  )",
      ")"
    ],
    "Params": {
      "LR": 0.0002,
      "DECAY": 0.9
    }
  },
  "large_24": {
    "Model": "Project/Models/model_large_24.pth",
    "UID": "25304850",
    "Transform": [
      "Compose(",
      "    CenterCrop(size=(800, 800))",
      "    ToTensor()",
      "    Grayscale(num_output_channels=1)",
      ")"
    ],
    "Layers": [
      "SiameseNetwork(",
      "  (CNN): Sequential(",
      "    (0): Conv2d(1, 96, kernel_size=(15, 15), stride=(5, 5))",
      "    (1): ReLU(inplace=True)",
      "    (2): MaxPool2d(kernel_size=3, stride=2, padding=0, dilation=1, ceil_mode=False)",
      "    (3): Conv2d(96, 256, kernel_size=(10, 10), stride=(4, 4))",
      "    (4): ReLU(inplace=True)",
      "    (5): MaxPool2d(kernel_size=2, stride=2, padding=0, dilation=1, ceil_mode=False)",
      "    (6): Conv2d(256, 384, kernel_size=(5, 5), stride=(1, 1))",
      "    (7): ReLU(inplace=True)",
      "  )",
      "  (FC): Sequential(",
      "    (0): Linear(in_features=9600, out_features=8192, bias=True)",
      "    (1): ReLU(inplace=True)",
      "    (2): Linear(in_features=8192, out_features=2048, bias=True)",
      "    (3): ReLU(inplace=True)",
      "    (4): Linear(in_features=2048, out_features=1024, bias=True)",
      "  )",
      ")"
    ],
    "Params": {
      "LR": 0.0002,
      "DECAY": 0.9
    }
  },
  "large_25": {
    "Model": "Project/Models/model_large_25.pth",
    "UID": "25308142",
    "Transform": [
      "Compose(",
      "    CenterCrop(size=(800, 800))",
      "    ToTensor()",
      "    Grayscale(num_output_channels=1)",
      ")"
    ],
    "Layers": [
      "SiameseNetwork(",
      "  (CNN): Sequential(",
      "    (0): Conv2d(1, 96, kernel_size=(15, 15), stride=(5, 5))",
      "    (1): ReLU(inplace=True)",
      "    (2): MaxPool2d(kernel_size=3, stride=2, padding=0, dilation=1, ceil_mode=False)",
      "    (3): Conv2d(96, 256, kernel_size=(10, 10), stride=(4, 4))",
      "    (4): ReLU(inplace=True)",
      "    (5): MaxPool2d(kernel_size=2, stride=2, padding=0, dilation=1, ceil_mode=False)",
      "    (6): Conv2d(256, 384, kernel_size=(5, 5), stride=(1, 1))",
      "    (7): ReLU(inplace=True)",
      "  )",
      "  (FC): Sequential(",
      "    (0): Linear(in_features=9600, out_features=8192, bias=True)",
      "    (1): ReLU(inplace=True)",
      "    (2): Linear(in_features=8192, out_features=2048, bias=True)",
      "    (3): ReLU(inplace=True)",
      "    (4): Linear(in_features=2048, out_features=1024, bias=True)",
      "  )",
      ")"
    ],
    "Params": {
      "LR": 0.0002,
      "DECAY": 0.9
    }
  },
  "large_26": {
    "Model": "Project/Models/model_large_26.pth",
    "UID": "25325799",
    "Transform": [
      "Compose(",
      "    CenterCrop(size=(800, 800))",
      "    ToTensor()",
      "    Grayscale(num_output_channels=1)",
      ")"
    ],
    "Layers": [
      "SiameseNetwork(",
      "  (CNN): Sequential(",
      "    (0): Conv2d(1, 96, kernel_size=(15, 15), stride=(5, 5))",
      "    (1): ReLU(inplace=True)",
      "    (2): MaxPool2d(kernel_size=3, stride=2, padding=0, dilation=1, ceil_mode=False)",
      "    (3): Conv2d(96, 256, kernel_size=(10, 10), stride=(4, 4))",
      "    (4): ReLU(inplace=True)",
      "    (5): MaxPool2d(kernel_size=2, stride=2, padding=0, dilation=1, ceil_mode=False)",
      "    (6): Conv2d(256, 384, kernel_size=(5, 5), stride=(1, 1))",
      "    (7): ReLU(inplace=True)",
      "  )",
      "  (FC): Sequential(",
      "    (0): Linear(in_features=9600, out_features=8192, bias=True)",
      "    (1): ReLU(inplace=True)",
      "    (2): Linear(in_features=8192, out_features=2048, bias=True)",
      "    (3): ReLU(inplace=True)",
      "    (4): Linear(in_features=2048, out_features=1024, bias=True)",
      "  )",
      ")"
    ],
    "Params": {
      "LR": 0.0002,
      "DECAY": 0.9
    }
  },
  "large_27": {
    "Model": "Project/Models/model_large_27.pth",
    "UID": "25331527",
    "Transform": [
      "Compose(",
      "    CenterCrop(size=(800, 800))",
      "    ToTensor()",
      "    Grayscale(num_output_channels=1)",
      ")"
    ],
    "Layers": [
      "SiameseNetwork(",
      "  (CNN): Sequential(",
      "    (0): Conv2d(1, 96, kernel_size=(15, 15), stride=(5, 5))",
      "    (1): ReLU(inplace=True)",
      "    (2): MaxPool2d(kernel_size=3, stride=2, padding=0, dilation=1, ceil_mode=False)",
      "    (3): Conv2d(96, 256, kernel_size=(10, 10), stride=(4, 4))",
      "    (4): ReLU(inplace=True)",
      "    (5): MaxPool2d(kernel_size=2, stride=2, padding=0, dilation=1, ceil_mode=False)",
      "    (6): Conv2d(256, 384, kernel_size=(5, 5), stride=(1, 1))",
      "    (7): ReLU(inplace=True)",
      "  )",
      "  (FC): Sequential(",
      "    (0): Linear(in_features=9600, out_features=8192, bias=True)",
      "    (1): ReLU(inplace=True)",
      "    (2): Linear(in_features=8192, out_features=2048, bias=True)",
      "    (3): ReLU(inplace=True)",
      "    (4): Linear(in_features=2048, out_features=1024, bias=True)",
      "  )",
      ")"
    ],
    "Params": {
      "LR": 0.0002,
      "DECAY": 0.9
    }
  }
}